…
te=0.0, copy_paste_mode=flip, auto_augment=randaugment, erasing=0.4, crop_fraction=1.0, cfg=None, tracker=botsort.yaml, save_dir=/home/kannan/runs/detect/tiny_yolo_banana_teddy2
Downloading https://ultralytics.com/assets/Arial.ttf to '/home/kannan/.config/Ultralytics/Arial.ttf'...
  0%|          | 0.00/755k [00:00<?, ?B/s]100%|â–ˆâ–ˆâ–ˆâ–ˆâ–ˆâ–ˆâ–ˆâ–ˆâ–ˆâ–ˆ| 755k/755k [00:00<00:00, 17.0MB/s]
Overriding model.yaml nc=80 with nc=2

                   from  n    params  module                                       arguments                     
  0                  -1  1      1760  ultralytics.nn.modules.conv.Conv             [3, 16, 6, 2, 2]              
  1                  -1  1      4672  ultralytics.nn.modules.conv.Conv             [16, 32, 3, 2]                
  2                  -1  1      4800  ultralytics.nn.modules.block.C3              [32, 32, 1]                   
  3                  -1  1     18560  ultralytics.nn.modules.conv.Conv             [32, 64, 3, 2]                
  4                  -1  2     29184  ultralytics.nn.modules.block.C3              [64, 64, 2]                   
  5                  -1  1     73984  ultralytics.nn.modules.conv.Conv             [64, 128, 3, 2]               
  6                  -1  3    156928  ultralytics.nn.modules.block.C3              [128, 128, 3]                 
  7                  -1  1    295424  ultralytics.nn.modules.conv.Conv             [128, 256, 3, 2]              
  8                  -1  1    296448  ultralytics.nn.modules.block.C3              [256, 256, 1]                 
  9                  -1  1    164608  ultralytics.nn.modules.block.SPPF            [256, 256, 5]                 
 10                  -1  1     33024  ultralytics.nn.modules.conv.Conv             [256, 128, 1, 1]              
 11                  -1  1         0  torch.nn.modules.upsampling.Upsample         [None, 2, 'nearest']          
 12             [-1, 6]  1         0  ultralytics.nn.modules.conv.Concat           [1]                           
 13                  -1  1     90880  ultralytics.nn.modules.block.C3              [256, 128, 1, False]          
 14                  -1  1      8320  ultralytics.nn.modules.conv.Conv             [128, 64, 1, 1]               
 15                  -1  1         0  torch.nn.modules.upsampling.Upsample         [None, 2, 'nearest']          
 16             [-1, 4]  1         0  ultralytics.nn.modules.conv.Concat           [1]                           
 17                  -1  1     22912  ultralytics.nn.modules.block.C3              [128, 64, 1, False]           
 18                  -1  1     36992  ultralytics.nn.modules.conv.Conv             [64, 64, 3, 2]                
 19            [-1, 14]  1         0  ultralytics.nn.modules.conv.Concat           [1]                           
 20                  -1  1     74496  ultralytics.nn.modules.block.C3              [128, 128, 1, False]          
 21                  -1  1    147712  ultralytics.nn.modules.conv.Conv             [128, 128, 3, 2]              
 22            [-1, 10]  1         0  ultralytics.nn.modules.conv.Concat           [1]                           
 23                  -1  1    296448  ultralytics.nn.modules.block.C3              [256, 256, 1, False]          
 24        [17, 20, 23]  1    751702  ultralytics.nn.modules.head.Detect           [2, [64, 128, 256]]           
YOLOv5n summary: 262 layers, 2,508,854 parameters, 2,508,838 gradients, 7.2 GFLOPs

Transferred 391/427 items from pretrained weights
[34m[1mTensorBoard: [0mStart with 'tensorboard --logdir /home/kannan/runs/detect/tiny_yolo_banana_teddy2', view at http://localhost:6006/
Freezing layer 'model.24.dfl.conv.weight'
[34m[1mAMP: [0mrunning Automatic Mixed Precision (AMP) checks...
…
